{"config": [{"config": {"dtype": "float32", "arguments": {}, "trainable": true, "name": "lambda_8", "batch_input_shape": [null, 80, 280, 3], "function": ["\u00e3\u0001\u0000\u0000\u0000\u0000\u0000\u0000\u0000\u0001\u0000\u0000\u0000\u0002\u0000\u0000\u0000C\u0000\u0000\u0000s\f\u0000\u0000\u0000|\u0000\u0000d\u0001\u0000\u001bd\u0002\u0000\u0018S)\u0003N\u00e9\u00ff\u0000\u0000\u0000g\u0000\u0000\u0000\u0000\u0000\u0000\u00e0?\u00a9\u0000)\u0001\u00da\u0001xr\u0002\u0000\u0000\u0000r\u0002\u0000\u0000\u0000\u00fa\u001f<ipython-input-50-985e38eeee52>\u00da\b<lambda>\u0003\u0000\u0000\u0000s\u0000\u0000\u0000\u0000", null, null], "function_type": "lambda", "output_shape": null, "output_shape_type": "raw"}, "class_name": "Lambda"}, {"config": {"kernel_size": [5, 5], "name": "conv2d_36", "kernel_initializer": {"config": {"distribution": "uniform", "mode": "fan_avg", "seed": null, "scale": 1.0}, "class_name": "VarianceScaling"}, "filters": 24, "activity_regularizer": null, "kernel_constraint": null, "kernel_regularizer": {"config": {"l2": 0.0010000000474974513, "l1": 0.0}, "class_name": "L1L2"}, "padding": "same", "trainable": true, "bias_constraint": null, "data_format": "channels_last", "use_bias": true, "bias_regularizer": null, "activation": "relu", "bias_initializer": {"config": {}, "class_name": "Zeros"}, "strides": [2, 2], "dilation_rate": [1, 1]}, "class_name": "Conv2D"}, {"config": {"kernel_size": [5, 5], "name": "conv2d_37", "kernel_initializer": {"config": {"distribution": "uniform", "mode": "fan_avg", "seed": null, "scale": 1.0}, "class_name": "VarianceScaling"}, "filters": 48, "activity_regularizer": null, "kernel_constraint": null, "kernel_regularizer": {"config": {"l2": 0.0010000000474974513, "l1": 0.0}, "class_name": "L1L2"}, "padding": "same", "trainable": true, "bias_constraint": null, "data_format": "channels_last", "use_bias": true, "bias_regularizer": null, "activation": "relu", "bias_initializer": {"config": {}, "class_name": "Zeros"}, "strides": [2, 2], "dilation_rate": [1, 1]}, "class_name": "Conv2D"}, {"config": {"kernel_size": [5, 5], "name": "conv2d_38", "kernel_initializer": {"config": {"distribution": "uniform", "mode": "fan_avg", "seed": null, "scale": 1.0}, "class_name": "VarianceScaling"}, "filters": 96, "activity_regularizer": null, "kernel_constraint": null, "kernel_regularizer": {"config": {"l2": 0.0010000000474974513, "l1": 0.0}, "class_name": "L1L2"}, "padding": "same", "trainable": true, "bias_constraint": null, "data_format": "channels_last", "use_bias": true, "bias_regularizer": null, "activation": "relu", "bias_initializer": {"config": {}, "class_name": "Zeros"}, "strides": [2, 2], "dilation_rate": [1, 1]}, "class_name": "Conv2D"}, {"config": {"kernel_size": [3, 3], "name": "conv2d_39", "kernel_initializer": {"config": {"distribution": "uniform", "mode": "fan_avg", "seed": null, "scale": 1.0}, "class_name": "VarianceScaling"}, "filters": 128, "activity_regularizer": null, "kernel_constraint": null, "kernel_regularizer": {"config": {"l2": 0.0010000000474974513, "l1": 0.0}, "class_name": "L1L2"}, "padding": "same", "trainable": true, "bias_constraint": null, "data_format": "channels_last", "use_bias": true, "bias_regularizer": null, "activation": "relu", "bias_initializer": {"config": {}, "class_name": "Zeros"}, "strides": [2, 2], "dilation_rate": [1, 1]}, "class_name": "Conv2D"}, {"config": {"kernel_size": [3, 3], "name": "conv2d_40", "kernel_initializer": {"config": {"distribution": "uniform", "mode": "fan_avg", "seed": null, "scale": 1.0}, "class_name": "VarianceScaling"}, "filters": 128, "activity_regularizer": null, "kernel_constraint": null, "kernel_regularizer": {"config": {"l2": 0.0010000000474974513, "l1": 0.0}, "class_name": "L1L2"}, "padding": "same", "trainable": true, "bias_constraint": null, "data_format": "channels_last", "use_bias": true, "bias_regularizer": null, "activation": "relu", "bias_initializer": {"config": {}, "class_name": "Zeros"}, "strides": [2, 2], "dilation_rate": [1, 1]}, "class_name": "Conv2D"}, {"config": {"trainable": true, "name": "flatten_8"}, "class_name": "Flatten"}, {"config": {"kernel_constraint": null, "name": "dense_32", "kernel_initializer": {"config": {"distribution": "uniform", "mode": "fan_avg", "seed": null, "scale": 1.0}, "class_name": "VarianceScaling"}, "use_bias": true, "activity_regularizer": null, "kernel_regularizer": {"config": {"l2": 0.0010000000474974513, "l1": 0.0}, "class_name": "L1L2"}, "trainable": true, "bias_constraint": null, "units": 100, "bias_regularizer": null, "activation": "linear", "bias_initializer": {"config": {}, "class_name": "Zeros"}}, "class_name": "Dense"}, {"config": {"kernel_constraint": null, "name": "dense_33", "kernel_initializer": {"config": {"distribution": "uniform", "mode": "fan_avg", "seed": null, "scale": 1.0}, "class_name": "VarianceScaling"}, "use_bias": true, "activity_regularizer": null, "kernel_regularizer": {"config": {"l2": 0.0010000000474974513, "l1": 0.0}, "class_name": "L1L2"}, "trainable": true, "bias_constraint": null, "units": 50, "bias_regularizer": null, "activation": "linear", "bias_initializer": {"config": {}, "class_name": "Zeros"}}, "class_name": "Dense"}, {"config": {"kernel_constraint": null, "name": "dense_34", "kernel_initializer": {"config": {"distribution": "uniform", "mode": "fan_avg", "seed": null, "scale": 1.0}, "class_name": "VarianceScaling"}, "use_bias": true, "activity_regularizer": null, "kernel_regularizer": {"config": {"l2": 0.0010000000474974513, "l1": 0.0}, "class_name": "L1L2"}, "trainable": true, "bias_constraint": null, "units": 25, "bias_regularizer": null, "activation": "linear", "bias_initializer": {"config": {}, "class_name": "Zeros"}}, "class_name": "Dense"}, {"config": {"kernel_constraint": null, "name": "dense_35", "kernel_initializer": {"config": {"distribution": "uniform", "mode": "fan_avg", "seed": null, "scale": 1.0}, "class_name": "VarianceScaling"}, "use_bias": true, "activity_regularizer": null, "kernel_regularizer": null, "trainable": true, "bias_constraint": null, "units": 1, "bias_regularizer": null, "activation": "linear", "bias_initializer": {"config": {}, "class_name": "Zeros"}}, "class_name": "Dense"}], "backend": "tensorflow", "class_name": "Sequential", "keras_version": "2.0.6"}